jupyternotebook/quantized_mnist_model_4levels.tflite (tflite, 275368 bytes, 3 tensors)

sequential_1/dense_3/MatMul i1 [300, 784] scale=0.006045638 zero_point=0
-0.024182552 -0.006045638 -0.06650202 0.0 0.06045638 -0.042319465 0.018136915 0.006045638
0.018136915 0.03627383 0.006045638 0.054410744 -0.012091276 0.054410744 -0.03627383 -0.042319465
0.0 -0.06650202 -0.048365105 -0.012091276 0.0 -0.06650202 -0.03627383 -0.024182552
-0.03627383 -0.06650202 -0.054410744 -0.024182552 -0.03627383 0.06045638 -0.012091276 -0.06650202
-0.06650202 -0.024182552 0.048365105 -0.03022819 -0.03022819 -0.03022819 0.054410744 -0.042319465
0.024182552 0.03022819 0.018136915 0.012091276 -0.012091276 0.03627383 -0.012091276 0.03627383
-0.03627383 -0.006045638 -0.054410744 0.048365105 0.048365105 -0.048365105 0.03022819 -0.03627383
-0.042319465 -0.024182552 0.006045638 0.018136915 0.07254766 -0.024182552 -0.09673021 -0.0785933
0.012091276 0.07254766 0.042319465 -0.018136915 -0.06650202 -0.06650202 -0.03022819 0.10277585
-0.06045638 -0.1571866 -0.16323222 -0.08463893 -0.042319465 -0.08463893 -0.06045638 0.006045638
0.018136915 -0.03627383 -0.012091276 0.07254766 -0.006045638 0.0 -0.06650202 0.006045638
0.0 0.024182552 -0.012091276 -0.03022819 0.048365105 -0.0785933 0.006045638 -0.09673021
-0.03627383 -0.018136915 -0.048365105 -0.10882149 -0.10277585 -0.06045638 -0.1269584 -0.18741478
-0.12091276 -0.0785933 -0.13904968 -0.12091276 0.012091276 -0.042319465 0.06650202 -0.048365105
0.042319465 0.054410744 0.06650202 0.13904968 0.07254766 -0.024182552 -0.13300404 0.006045638
-0.006045638 -0.10882149 0.09673021 0.048365105 0.09068457 0.018136915 0.12091276 -0.012091276
-0.018136915 -0.018136915 -0.10277585 -0.1571866 -0.1571866 -0.15114096 -0.06650202 -0.0785933
-0.09068457 0.018136915 0.09673021 -0.03022819 -0.042319465 -0.048365105 0.024182552 0.054410744
0.012091276 -0.07254766 -0.10277585 -0.06045638 -0.09068457 -0.18136914 -0.024182552 0.1269584
0.13300404 0.024182552 0.006045638 0.10277585 0.0785933 0.012091276 -0.048365105 -0.06650202
-0.012091276 -0.10277585 -0.1571866 -0.13300404 -0.048365105 0.042319465 -0.0785933 0.0
-0.03022819 0.0785933 0.054410744 0.006045638 -0.006045638 -0.11486712 -0.07254766 -0.14509532
-0.10882149 0.03022819 0.054410744 0.09673021 0.09068457 0.0785933 0.0 0.03627383
0.048365105 0.0785933 0.006045638 -0.09673021 -0.10277585 -0.1269584 -0.054410744 -0.018136915
0.012091276 0.0785933 0.006045638 0.0 -0.012091276 0.024182552 0.03022819 -0.0785933
0.09673021 -0.1571866 0.0 -0.11486712 0.024182552 0.12091276 -0.03022819 -0.042319465
-0.024182552 0.06650202 -0.042319465 0.06650202 0.03022819 0.0 0.0 -0.012091276
-0.14509532 -0.0785933 -0.1269584 0.0 0.08463893 0.006045638 0.006045638 0.0
-0.042319465 0.006045638 0.054410744 0.10277585 0.08463893 0.0 0.07254766 -0.042319465
0.06650202 -0.006045638 -0.09068457 -0.012091276 -0.042319465 0.08463893 0.006045638 0.012091276
-0.03627383 -0.018136915 0.09068457 -0.024182552 0.024182552 -0.0785933 0.006045638 0.018136915
-0.09068457 -0.06045638 0.09068457 0.042319465 -0.06045638 -0.042319465 0.012091276 0.19950606
00000000: fcff f500 0af9 0301 0306 0109 fe09 faf9
00000010: 00f5 f8fe 00f5 fafc faf5 f7fc fa0a fef5
00000020: f5fc 08fb fbfb 09f9 0405 0302 fe06 fe06
00000030: faff f708 08f8 05fa f9fc 0103 0cfc f0f3
00000040: 020c 07fd f5f5 fb11 f6e6 e5f2 f9f2 f601
00000050: 03fa fe0c ff00 f501 0004 fefb 08f3 01f0
00000060: fafd f8ee eff6 ebe1 ecf3 e9ec 02f9 0bf8
00000070: 0709 0b17 0cfc ea01 ffee 1008 0f03 14fe
00000080: fdfd efe6 e6e7 f5f3 f103 10fb f9f8 0409
00000090: 02f4 eff6 f1e2 fc15 1604 0111 0d02 f8f5
000000a0: feef e6ea f807 f300 fb0d 0901 ffed f4e8
000000b0: ee05 0910 0f0d 0006 080d 01f0 efeb f7fd
000000c0: 020d 0100 fe04 05f3 10e6 00ed 0414 fbf9
000000d0: fc0b f90b 0500 00fe e8f3 eb00 0e01 0100
000000e0: f901 0911 0e00 0cf9 0bff f1fe f90e 0102
000000f0: fafd 0ffc 04f3 0103 f1f6 0f07 f6f9 0221

sequential_1/dense_4/MatMul i1 [100, 300] scale=0.0051733777 zero_point=0
0.08277404 0.077600665 0.010346755 -0.010346755 -0.11381431 -0.11381431 0.2534955 0.0931208
0.015520133 0.06725391 -0.07242729 -0.15520133 -0.11898769 0.0931208 -0.062080532 0.0931208
0.0931208 0.031040266 0.04138702 -0.11381431 -0.036213644 -0.103467554 -0.0465604 0.0931208
0.04138702 -0.06725391 0.077600665 0.19141498 0.20693511 -0.2121085 0.056907155 0.11381431
-0.11898769 -0.025866888 0.015520133 0.0 -0.06725391 0.036213644 -0.06725391 0.036213644
0.21728186 -0.036213644 -0.2586689 0.28970915 0.1603747 -0.19141498 0.025866888 -0.031040266
-0.06725391 0.056907155 -0.031040266 0.18106821 0.124161065 0.17072147 -0.031040266 0.0051733777
0.025866888 0.062080532 0.1603747 0.077600665 -0.015520133 0.22762862 -0.051733777 0.0051733777
-0.056907155 0.16554809 -0.077600665 0.12933445 0.056907155 0.13968119 -0.232802 -0.04138702
-0.20176172 0.0051733777 0.0051733777 0.11898769 0.077600665 0.08277404 0.0 0.10864093
0.1862416 0.103467554 -0.036213644 0.010346755 0.062080532 -0.07242729 -0.31557605 -0.124161065
-0.010346755 -0.062080532 0.17072147 0.036213644 -0.015520133 0.17589484 0.17589484 0.15520133
-0.103467554 -0.14485458 -0.17589484 0.10864093 0.015520133 -0.13968119 0.11381431 -0.15002796
-0.0931208 0.1862416 -0.07242729 -0.20176172 -0.015520133 -0.08277404 0.098294176 -0.124161065
0.051733777 -0.051733777 -0.2586689 0.11898769 0.077600665 0.077600665 -0.036213644 0.13968119
-0.06725391 0.11381431 -0.15002796 0.22762862 0.098294176 0.124161065 0.025866888 -0.010346755
0.02069351 -0.02069351 -0.07242729 0.062080532 0.19141498 0.15520133 0.031040266 0.0931208
-0.031040266 -0.051733777 0.025866888 -0.077600665 0.10864093 0.0051733777 0.0931208 0.14485458
0.27418903 0.15002796 0.13968119 0.04138702 0.13450782 -0.025866888 -0.103467554 0.26384225
-0.20176172 -0.1862416 -0.0931208 0.051733777 -0.051733777 0.04138702 -0.010346755 -0.07242729
0.010346755 -0.062080532 0.010346755 -0.031040266 0.031040266 0.10864093 -0.12933445 0.1862416
-0.08277404 0.15002796 0.20693511 0.13450782 0.07242729 0.11381431 0.010346755 -0.02069351
0.13450782 0.025866888 0.1862416 -0.04138702 0.124161065 0.14485458 0.051733777 0.2586689
0.06725391 0.14485458 0.18106821 0.12933445 0.1603747 0.08794742 -0.056907155 -0.11898769
0.16554809 -0.22245523 -0.0051733777 0.015520133 0.2586689 0.11898769 0.10864093 0.0
-0.056907155 0.036213644 0.036213644 -0.015520133 0.14485458 -0.22762862 0.11898769 -0.124161065
-0.0051733777 -0.0051733777 0.0051733777 -0.0465604 -0.11898769 0.13450782 0.15520133 0.13450782
-0.025866888 0.27418903 -0.077600665 0.04138702 0.08794742 -0.06725391 0.103467554 0.16554809
0.17072147 0.025866888 0.13968119 0.098294176 -0.04138702 -0.24314874 -0.062080532 0.14485458
0.2534955 0.22245523 -0.23797537 -0.062080532 0.056907155 -0.10864093 -0.010346755 0.23797537
-0.08794742 0.025866888 -0.11381431 -0.025866888 -0.14485458 0.37765658 -0.11381431 0.08277404
-0.08794742 0.02069351 0.051733777 -0.16554809 0.14485458 -0.098294176 -0.07242729 -0.015520133
00000000: 100f 02fe eaea 3112 030d f2e2 e912 f412
00000010: 1206 08ea f9ec f712 08f3 0f25 28d7 0b16
00000020: e9fb 0300 f307 f307 2af9 ce38 1fdb 05fa
00000030: f30b fa23 1821 fa01 050c 1f0f fd2c f601
00000040: f520 f119 0b1b d3f8 d901 0117 0f10 0015
00000050: 2414 f902 0cf2 c3e8 fef4 2107 fd22 221e
00000060: ece4 de15 03e5 16e3 ee24 f2d9 fdf0 13e8
00000070: 0af6 ce17 0f0f f91b f316 e32c 1318 05fe
00000080: 04fc f20c 251e 0612 faf6 05f1 1501 121c
00000090: 351d 1b08 1afb ec33 d9dc ee0a f608 fef2
000000a0: 02f4 02fa 0615 e724 f01d 281a 0e16 02fc
000000b0: 1a05 24f8 181c 0a32 0d1c 2319 1f11 f5e9
000000c0: 20d5 ff03 3217 1500 f507 07fd 1cd4 17e8
000000d0: ffff 01f7 e91a 1e1a fb35 f108 11f3 1420
000000e0: 2105 1b13 f8d1 f41c 312b d2f4 0beb fe2e
000000f0: ef05 eafb e449 ea10 ef04 0ae0 1ced f2fd

sequential_1/dense_5/MatMul i1 [10, 100] scale=0.0042854813 zero_point=0
0.08999511 0.08142415 -0.10713703 -0.20141762 0.20570311 -0.21855955 0.0 0.19284666
-0.05571126 -0.017141925 -0.05999674 0.072853185 0.07713866 0.12856443 -0.26998532 -0.017141925
-0.18856117 -0.24855791 0.26998532 0.17141925 -0.26998532 0.05571126 0.07713866 -0.31284013
-0.09856607 -0.021427406 -0.1628483 -0.31712562 -0.05999674 -0.17999022 -0.3428385 -0.19713214
-0.40283525 0.17570473 0.05999674 0.072853185 0.2271305 -0.03856933 -0.03428385 0.11999348
0.11142252 0.11999348 0.021427406 0.20141762 0.124278955 0.16713376 0.14570637 -0.30855465
-0.2271305 -0.2271305 0.19284666 -0.22284503 0.25712886 -0.21855955 0.20570311 0.1842757
0.14142089 0.12856443 0.0042854813 -0.012856444 0.20141762 0.017141925 -0.012856444 -0.08142415
0.19713214 0.05999674 -0.2742708 0.021427406 0.09856607 0.24855791 -0.4371191 -0.16713376
-0.16713376 -0.3256966 0.05999674 -0.3685514 -0.16713376 -0.05571126 -0.21427406 -0.49283034
0.08999511 -0.44997555 -0.21855955 0.17999022 -0.15427732 -0.09856607 -0.064282216 -0.064282216
0.21855955 0.17570473 -0.0042854813 -0.23998696 -0.3214111 -0.53139967 0.18856117 0.21427406
-0.14570637 -0.16713376 -0.44140458 -0.35569495 -0.31712562 -0.22284503 0.03428385 0.1628483
0.008570963 -0.35569495 -0.021427406 0.2271305 0.18856117 0.17570473 -0.1628483 0.017141925
0.17999022 -0.2271305 0.17999022 -0.21855955 0.085709624 0.3856933 -0.051425777 0.11142252
0.30855465 -0.051425777 -0.21855955 -0.14570637 0.11142252 -0.15427732 -0.14570637 -0.03856933
-0.21427406 0.051425777 0.14999184 0.102851555 -0.14142089 0.23570147 -0.14570637 -0.37712234
-0.29141274 0.072853185 -0.37283686 0.1628483 -0.072853185 -0.1842757 -0.15856281 0.14999184
0.2271305 0.11142252 -0.1842757 0.11570799 -0.23998696 0.26141435 0.047140293 -0.3685514
-0.14999184 -0.16713376 0.18856117 0.15427732 0.35140947 0.008570963 0.0042854813 -0.18856117
0.24427244 -0.10713703 -0.02999837 -0.18856117 -0.21855955 -0.15856281 0.094280586 0.0042854813
0.2956982 -0.3214111 -0.3685514 0.11999348 -0.047140293 -0.14142089 -0.1371354 0.14999184
-0.0042854813 -0.1371354 0.021427406 0.2742708 0.017141925 0.17141925 -0.064282216 -0.064282216
0.064282216 0.19284666 -0.25712886 -0.094280586 -0.13284992 0.14570637 0.0042854813 -0.24427244
-0.12856443 -0.35569495 -0.3899788 -0.3214111 0.21427406 0.15427732 0.14142089 0.05999674
0.19713214 -0.102851555 -0.18856117 -0.23141599 -0.20998858 0.1842757 -0.085709624 0.102851555
-0.23141599 0.23998696 -0.1842757 0.20570311 0.0685677 0.20141762 0.042854812 -0.102851555
-0.2956982 -0.3685514 0.26569983 -0.11142252 -0.29998368 0.085709624 0.03856933 0.18856117
-0.3856933 0.021427406 -0.40283525 0.17999022 0.1371354 -0.4585465 0.19713214 -0.23570147
-0.14142089 0.1628483 -0.17570473 0.12856443 -0.21427406 -0.16713376 0.24427244 0.2742708
-0.05571126 -0.11570799 -0.064282216 -0.124278955 -0.085709624 -0.07713866 -0.31284013 0.03428385
0.26141435 0.23998696 -0.26998532 -0.03428385 -0.40283525 0.072853185 -0.08142415 -0.102851555
00000000: 1513 e7d1 30cd 002d f3fc f211 121e c1fc
00000010: d4c6 3f28 c10d 12b7 e9fb dab6 f2d6 b0d2
00000020: a229 0e11 35f7 f81c 1a1c 052f 1d27 22b8
00000030: cbcb 2dcc 3ccd 302b 211e 01fd 2f04 fded
00000040: 2e0e c005 173a 9ad9 d9b4 0eaa d9f3 ce8d
00000050: 1597 cd2a dce9 f1f1 3329 ffc8 b584 2c32
00000060: ded9 99ad b6cc 0826 02ad fb35 2c29 da04
00000070: 2acb 2acd 145a f41a 48f4 cdde 1adc def7
00000080: ce0c 2318 df37 dea8 bc11 a926 efd5 db23
00000090: 351a d51b c83d 0baa ddd9 2c24 5202 01d4
000000a0: 39e7 f9d4 cddb 1601 45b5 aa1c f5df e023
000000b0: ffe0 0540 0428 f1f1 0f2d c4ea e122 01c7
000000c0: e2ad a5b5 3224 210e 2ee8 d4ca cf2b ec18
000000d0: ca38 d530 102f 0ae8 bbaa 3ee6 ba14 092c
000000e0: a605 a22a 2095 2ec9 df26 d71e ced9 3940
000000f0: f3e5 f1e3 ecee b708 3d38 c1f8 a211 ede8
